{"architecture": "==========================================================================================\nLayer (type:depth-idx)                   Output Shape              Param #\n==========================================================================================\nPINN                                     [1, 1]                    --\n\u251c\u2500Sequential: 1-1                        [1, 1]                    --\n\u2502    \u2514\u2500Linear: 2-1                       [1, 64]                   128\n\u2502    \u2514\u2500ReLU: 2-2                         [1, 64]                   --\n\u2502    \u2514\u2500Linear: 2-3                       [1, 64]                   4,160\n\u2502    \u2514\u2500ReLU: 2-4                         [1, 64]                   --\n\u2502    \u2514\u2500Linear: 2-5                       [1, 64]                   4,160\n\u2502    \u2514\u2500ReLU: 2-6                         [1, 64]                   --\n\u2502    \u2514\u2500Linear: 2-7                       [1, 64]                   4,160\n\u2502    \u2514\u2500ReLU: 2-8                         [1, 64]                   --\n\u2502    \u2514\u2500Linear: 2-9                       [1, 1]                    65\n==========================================================================================\nTotal params: 12,673\nTrainable params: 12,673\nNon-trainable params: 0\nTotal mult-adds (Units.MEGABYTES): 0.01\n==========================================================================================\nInput size (MB): 0.00\nForward/backward pass size (MB): 0.00\nParams size (MB): 0.05\nEstimated Tota
…
